xyzModel.tflite (tflite, 25324 bytes, 10 tensors)

sequential/conv2d/BiasAdd/ReadVariableOp f4 [32]
000000 e8 86 e9 3e 3c bb 19 3c 0f 6c e6 3e 5d 1e 38 3d
       0.45610738 0.009383019 0.45004317 0.04495083
000010 f0 0e 58 bd 9a 29 02 3c fa 0d 49 3b 7b 0f 02 3f
       -0.05274862 0.007944489 0.0030678497 0.5080487
000020 4f 39 33 be 0a 19 05 3d 86 1a 61 3e a4 4c 99 3c
       -0.1750233 0.032494582 0.21982774 0.018713303
000030 a6 42 c2 3c 41 a6 75 3e d5 72 43 bf 56 87 27 3e
       0.023713421 0.23989202 -0.76347095 0.1636022
000040 de dd c8 3c 07 f4 c9 bc cc 54 14 3e 08 4a 92 bd
       0.024519857 -0.024652494 0.14485472 -0.071430266
000050 26 7e 93 3c 76 c3 71 3c d0 d4 53 3f 1d 53 80 3c
       0.018004488 0.014756074 0.827466 0.015664632
000060 12 71 8b 3c 95 76 a5 bd 02 29 9e be 65 14 ca be
       0.01702169 -0.08079258 -0.3089066 -0.39468685
000070 d3 64 38 3f 41 e8 f2 be d4 81 b4 3c 8b da 0b be
       0.72028846 -0.4744282 0.022034563 -0.13657586

sequential/conv2d_1/BiasAdd/ReadVariableOp f4 [32]
000000 14 eb 9b 3e 09 f7 1c 3f 1d 2a 9d bb e9 9f a6 3d
       0.30452788 0.61314446 -0.00479628 0.08135969
000010 fa b6 fe 3e ff 3f 1a 3d e4 7b 1b 3f 4e ec 19 3f
       0.49748975 0.037658688 0.6073592 0.601262
000020 a7 ce e5 3e d3 4a e7 3e b8 98 d3 3e c7 85 24 3f
       0.44884226 0.45174274 0.41327453 0.6426663
000030 19 07 23 3f 60 c8 b5 3e 43 a8 09 3e 5c fb c9 3e
       0.63682705 0.35504436 0.13443093 0.39449584
000040 39 d7 08 3e da 10 7a 3f 15 98 94 3e 40 fe c6 3e
       0.13363351 0.97681963 0.2902228 0.38865852
000050 c4 73 75 3f a0 b5 b3 3d 8a f0 3a bf 30 f6 fd 3e
       0.9587977 0.087748766 -0.73023283 0.4960189
000060 fc 7e f7 3e d0 2b 0f 3f 75 8c 06 3f e3 ee 5a be
       0.4833907 0.5592623 0.5255807 -0.2138019
000070 4d 05 76 bd e5 b7 02 3e 5a d5 0c 3f ab 3a 50 3f
       -0.06006365 0.12765463 0.5501305 0.8133952

sequential/dense_1/MatMul;sequential/dense_1/Relu;sequential/dense_1/BiasAdd f4 [16]
000000 5c 73 a4 3f fb 9b d5 3f 76 4f 85 3e 69 5f 9c 3f
       1.2847705 1.6688226 0.26037186 1.2216617
000010 c1 d0 64 3e dc a3 7d be bd cc 06 bf 53 fc 1f 3f
       0.22345258 -0.24769539 -0.52656156 0.6249439
000020 d2 66 69 3f 99 89 55 3f 26 6e b2 be 90 ba 23 be
       0.91172516 0.8341308 -0.34849662 -0.15989137
000030 af f6 87 3e 0c 46 f4 3e d9 3f 33 3f 60 44 56 3e
       0.26555392 0.47709692 0.700193 0.2092452

sequential/batch_normalization/batchnorm/mul_1;sequential/batch_normalization/batchnorm/add_1;sequential/dense_1/MatMul;sequential/dense_1/Relu;sequential/dense_1/BiasAdd f4 [16, 32]
000000 b9 f5 76 be bf 2d 05 bf bf a8 39 be b3 01 0a 3f
       -0.24117173 -0.5202293 -0.18130778 0.5390884
000010 39 c2 19 bf 12 1f f1 3e c8 05 a1 bd 61 b3 b2 be
       -0.60061985 0.47094017 -0.07862431 -0.3490248
000020 da c5 a3 bd 34 8b aa bd 21 ab 31 bf d6 76 31 3f
       -0.079967216 -0.08327332 -0.69401747 0.69321954
000030 80 9e db 3e 2a f8 c1 3e de 1e d5 3b 57 42 81 be
       0.42894363 0.37884647 0.006503924 -0.25245926
000040 3a 68 4c bf 59 2f 5d 3e 10 87 f6 be 12 9b 95 be
       -0.7984654 0.21600093 -0.4814992 -0.29219872
000050 f8 b3 26 be 7c 8f f7 be 3d ba 3c 3f 53 90 df 3d
       -0.1627959 -0.48351657 0.7372168 0.109161995
000060 62 e5 b6 be 5e d7 44 be 32 1c 3a 3e 21 60 c5 be
       -0.3572188 -0.19222781 0.18174818 -0.38549903
000070 d9 1f 05 bf c4 46 18 bf 1c 04 a1 be eb 93 2f bf
       -0.5200172 -0.5948298 -0.31448448 -0.6858508
000080 b3 2a 98 3e e4 1b 40 bf d0 b6 15 3e 83 7e eb be
       0.29720077 -0.7504256 0.14620519 -0.45994958
000090 0a 24 f2 3d b1 43 00 3f 3e 48 62 3c be 8d 04 be
       0.1182328 0.5010329 0.013811169 -0.12944695
0000a0 c7 80 63 bf 84 5d 24 bf 78 b6 1a bf f0 ce 1c 3f
       -0.88868374 -0.64205194 -0.60434675 0.6125326
0000b0 7f 0e b8 3e 17 83 6d 3e 65 0a 89 3e aa 3a 70 be
       0.3594856 0.23194538 0.26765743 -0.23459879
0000c0 54 bb 3b bf c7 c7 b7 3e 61 cb 30 bf cd 7f 57 bf
       -0.73332715 0.35894606 -0.6906033 -0.84179384
0000d0 cb ad 67 be 04 2f 87 bf d8 ae 44 3e 15 35 95 bd
       -0.2262489 -1.0561223 0.19207323 -0.07285515
0000e0 e8 c9 1e bf 58 ef 13 be bf 80 31 be 58 ac e7 bd
       -0.62026834 -0.14446771 -0.17334269 -0.11312169
0000f0 82 35 37 bf a2 5b 26 bf 00 32 c0 be 13 46 44 bf
       -0.7156602 -0.6498357 -0.37538147 -0.76669425
000100 f9 1d bb be 76 20 a7 bd b3 e2 1a be 7d 06 9d be
       -0.36546305 -0.08160488 -0.15125541 -0.30669013
000110 4b 9c 31 bf 4e eb e1 3e c3 63 4a 3d 3f 27 44 be
       -0.6937911 0.44124836 0.049411546 -0.19155596
000120 62 92 6b bf 47 26 c7 be 43 76 57 3e 8f 2a 82 3c
       -0.9202024 -0.3889639 0.21041207 0.015889434
000130 72 a3 84 3e 7f 2e 98 3e 2d 08 1d 3d 67 d9 1e bf
       0.2590595 0.29722974 0.038337875 -0.6205048
000140 b0 9a 8a be 4a 5e 7d be e7 21 73 bc 97 67 fc 3e
       -0.27071142 -0.24743 -0.014839626 0.49297783
000150 66 d6 09 be e1 c4 1a bf 8e 6e 8b 3e 5e 6e d8 3e
       -0.13460693 -0.60456663 0.27232784 0.42271703
000160 9f ed 97 3f e1 dd 9d be 20 25 0b 3f 24 38 15 be
       1.1869391 -0.30833343 0.54353523 -0.14572197
000170 c0 73 02 3f e4 eb d7 3e 77 d0 26 3f e4 04 36 be
       0.5095787 0.42172158 0.6516184 -0.17775303
000180 f1 5a b1 3d bd 7a e7 be 82 e9 7b be 1d e8 89 be
       0.08659924 -0.4521083 -0.24600795 -0.269349
000190 2f 70 9b be fa 4c 0c 3f 8d 74 cb bd eb 4b de bd
       -0.30359027 0.54804957 -0.0993434 -0.10854324
0001a0 3e af 35 bf 18 48 73 bf 9f ff 30 bf 1d 54 8a 3f
       -0.70970523 -0.9503188 -0.69140047 1.0806919
0001b0 e4 ee 67 3f 31 c7 93 bd 4a f2 a8 3e 63 82 38 bf
       0.90598893 -0.07215727 0.32997352 -0.72073954
0001c0 98 26 df 3e f7 d8 ab 3e 1c 5a 0d bf e3 05 2c bf
       0.43584132 0.3356397 -0.5521562 -0.6719648
0001d0 35 58 29 3e 0d e9 f0 be 6f cc 7d 3f 98 01 87 bd
       0.16537555 -0.47052804 0.99140066 -0.06592101
0001e0 0d 07 fc be b1 7b 95 bd f8 61 83 bd 07 15 90 bd
       -0.4922413 -0.07298983 -0.064151704 -0.07035261
0001f0 de dc 12 bf fe 98 b5 be bd 96 0d bf e8 d8 26 bf
       -0.57368267 -0.35468286 -0.55308133 -0.6517472
000200 6f 32 92 be c1 9d 4b 3f ee 65 dd 3e 84 de ad be
       -0.28554103 0.7953759 0.4324183 -0.33958828
000210 4d a1 04 bf 34 58 8c 3d c3 82 cf 3e 0c 9a fb 3e
       -0.51808625 0.06852761 0.4052945 0.49140966
000220 19 f5 ff be 59 8f b9 3b 31 ed 9b bc a7 f9 b7 be
       -0.49991682 0.0056628403 -0.019034 -0.35932657
000230 65 7d 27 bf a5 75 31 bf bc cd 00 be 3c 14 52 bf
       -0.6542571 -0.69320136 -0.12578481 -0.82062125
000240 8a 10 21 3f 8d 98 2a be 28 31 a8 3e 32 e8 87 be
       0.6291586 -0.16659756 0.32850003 -0.26544338
000250 20 b6 11 3f e7 ee 01 be 01 85 40 bf 3b 50 b1 bd
       0.56918526 -0.1268879 -0.7520295 -0.08657881
000260 dc 03 8d 3e ae 88 63 3e a3 ee c6 3d 30 d2 f2 3d
       0.27542007 0.22220108 0.09713485 0.11856496
000270 dd 03 75 3f 03 9a 23 3f 7e 16 b9 3e 54 0c 58 bf
       0.9570902 0.6390688 0.36149973 -0.8439381
000280 53 a1 75 3e 68 7c aa be 11 38 02 bf 97 5a dd 3e
       0.23987322 -0.3329804 -0.508668 0.43233177
000290 43 bc 00 3f 02 91 8e be ea 1d f8 3d d4 84 0a 3d
       0.50287265 -0.27845007 0.12115081 0.03381808
0002a0 18 8f 0e 3f 49 fb 0e 3f f0 71 be be 14 71 1d bf
       0.55687094 0.5585218 -0.37196302 -0.6150067
0002b0 df 66 f4 be 91 8f 2b 3e 5a 9a af bd 64 5c 4a 3f
       -0.47734734 0.16753985 -0.08574362 0.79047227
0002c0 eb 0f c4 be f5 ec f0 3d fb 4e f7 3e 98 db 88 3e
       -0.38293394 0.11763946 0.48302445 0.26730037
0002d0 7f 7d ad 3d 96 d2 b7 3f 92 40 19 bf 7b 68 21 be
       0.08471202 1.4361141 -0.5986415 -0.15762512
0002e0 4b 1b ff be 5b 6b 63 3e 54 c4 07 bf 9a b6 0d be
       -0.4982551 0.22208922 -0.5303395 -0.13839188
0002f0 ae 47 56 bf 7e b5 88 3d 92 65 d1 be e8 e4 6e 3f
       -0.83703125 0.06675242 -0.40897804 0.93318033
000300 ed 61 86 be dc 2c 28 3f 64 d0 cc 3e ae f1 30 bf
       -0.26246586 0.6569345 0.4000274 -0.69118774
000310 b8 90 fd bc bb 61 f8 3d af c6 ee 3d 15 88 6a bd
       -0.030952796 0.121280156 0.1165899 -0.057258684
000320 f2 d7 1e be 15 25 b2 3d 35 df 12 3f 81 10 e2 be
       -0.15512064 0.08698479 0.57371837 -0.44153216
000330 8b 73 20 bf 5a 72 be be f1 76 c4 3c 92 b9 9b 3c
       -0.62676305 -0.37196618 0.023982497 0.019009385
000340 c9 40 7c 40 fd b9 05 bf bc 01 ec 3e fe 22 23 3e
       3.9414542 -0.5223692 0.46095073 0.15931317
000350 68 53 c9 3d fb 2a 3d 3f c2 38 e8 be 76 47 cf 3e
       0.098303616 0.7389371 -0.45355803 0.40484208
000360 ee d8 1e 3f 91 da 5b 3e 72 bc 62 3e 28 d8 8a bc
       0.6204976 0.21470095 0.22142199 -0.016948774
000370 8f 66 35 3f 2e 23 3a 3e cc 77 aa 3e b6 40 1c bf
       0.70859617 0.18177482 0.33294523 -0.6103624
000380 8f 55 4b 3e 19 44 04 3f 66 0b 4d bf c9 fd 35 bf
       0.19856857 0.5166641 -0.8009552 -0.7109037
000390 d6 e7 28 bf bd c5 b1 bd 4e cf 1e 3e 5f 05 86 3e
       -0.65978754 -0.08680294 0.15508768 0.26175973
0003a0 21 51 90 bf b7 5c 9f be 3c 5f af 3e d0 54 e6 be
       -1.1274759 -0.31125423 0.34252346 -0.44986582
0003b0 57 90 64 bf 25 cf 33 bf 70 da 40 bd 99 4d 70 bf
       -0.89282745 -0.7023795 -0.04708332 -0.93868405
0003c0 5b 40 61 3f d4 3b bc bd 3e b5 0f bd c4 e6 4e 3e
       0.87988824 -0.09191099 -0.035084955 0.20205218
0003d0 77 91 0a 3f 08 70 8f be 31 c8 14 bf 73 fd 64 be
       0.5412821 -0.2801516 -0.5811797 -0.22362308
0003e0 2e f0 ed 3f 14 15 ad 3e 58 68 04 3d 8f 6f d1 3d
       1.8588922 0.33805144 0.032326072 0.10226356
0003f0 b6 d8 9e 3f da 3f d7 3e e5 fc f8 3e 8a 50 48 bf
       1.2409885 0.42040902 0.48630443 -0.7824789

sequential/conv2d/Conv2D f4 [32, 8, 2, 1]
000000 5c 77 5b be 2f 76 61 3d 8a f0 65 bd 5b 87 41 be
       -0.2143225 0.05504435 -0.0561376 -0.1889929
000010 ac cd a7 bd e2 2b 9c bd 3f 6d 0b be e4 97 0f be
       -0.08193526 -0.076255575 -0.13615893 -0.14022785
000020 66 20 26 be 2f 8f f8 bd de 95 65 bd 95 45 5c bd
       -0.16223297 -0.12136685 -0.056051128 -0.053777296
000030 1a 30 97 3b d9 73 64 3d ea a2 ee 3c 58 4a 00 3d
       0.0046138884 0.055774543 0.029130418 0.0313209
000040 25 50 f4 bc a0 dd 83 3e 8f e1 a0 bd 70 7f 64 3d
       -0.029823372 0.25755024 -0.07855522 0.055785596
000050 fa 79 9f 3d 7a c6 84 bd 04 cd 0c be 1f f4 a4 3d
       0.07786937 -0.06483169 -0.13750082 0.08054375
000060 a1 a7 08 3e 58 58 b9 bd a2 da c2 3d c0 30 4f bd
       0.13345195 -0.09050053 0.09514357 -0.0505836
000070 8e 91 da 3d 21 00 c1 3d d8 ae 3e 3c ad f1 54 3e
       0.106722936 0.09423853 0.011638366 0.20795317
000080 2b 44 83 3c 5f 57 06 be 5b 46 0e 3e 10 2e 0b be
       0.016023716 -0.13119267 0.13894026 -0.1359179
000090 43 46 6b 3c a2 34 22 be 63 47 a3 3d f5 26 df bc
       0.014360013 -0.1584039 0.079726 -0.027240256
0000a0 a8 a1 99 bd e6 37 30 3d ea b0 a8 bd 2b d7 1b be
       -0.075015366 0.04302206 -0.08236869 -0.15218799
0000b0 fd 21 84 3e 0d 3c a9 bd 48 44 01 3d a9 28 3f be
       0.2580718 -0.08263407 0.03155926 -0.18667854
0000c0 14 5a 73 bd 73 98 09 be a5 b2 86 bd e0 d5 17 be
       -0.059412077 -0.13437061 -0.065770425 -0.1482768
0000d0 0e 56 64 be 65 51 63 be e5 90 6e be 86 7e 43 bd
       -0.22298452 -0.22199018 -0.2329746 -0.047728084
0000e0 e2 d6 67 be 4f dc d9 bd 11 80 24 be 8a 6b f4 bd
       -0.22640565 -0.10637724 -0.16064478 -0.11934574
0000f0 46 b4 2c bd 2b 67 bd bd 18 77 4b 3d f2 89 64 bd
       -0.04216411 -0.09248193 0.049674124 -0.055795617
000100 96 c6 16 3e 0a 71 02 3e 77 38 21 3e 5c 56 02 bc
       0.14724192 0.12738433 0.15744196 -0.00795516
000110 aa eb 7f 3e a2 9f 5b bd 68 47 ed 3d 27 7c cc bd
       0.24992242 -0.053619035 0.11585885 -0.09984618
000120 9e 1e b4 bc df 79 50 be a0 ec 6a 3c 6a 61 5b 3e
       -0.021987256 -0.2035899 0.014338642 0.2142388
000130 b8 be 0d bd 06 eb 28 3c ca 45 06 3e f1 1f 92 3d
       -0.03460571 0.01030994 0.1311256 0.071349986
000140 23 f5 fe bc 4b 1a ee bd 42 13 8b bd fb 34 37 3c
       -0.03112275 -0.11626109 -0.067907825 0.011182065
000150 df 59 e4 bd d4 22 2e bd 99 b9 08 3e a3 e5 19 3d
       -0.11149954 -0.042513683 0.1335205 0.037572514
000160 55 9f a7 3d dd aa 48 3d c1 66 b2 3c e2 5c 38 bd
       0.08184687 0.048991073 0.021777513 -0.045010455
000170 61 f1 57 bc 92 6a dd 3c be d4 75 3c d5 13 5a 3e
       -0.013180108 0.027028356 0.015004335 0.21296628
000180 5c 33 11 be 80 93 06 bd 2c d4 a4 bb 78 96 25 bd
       -0.14179748 -0.03285551 -0.0050301757 -0.0404267
000190 87 c8 b7 bd c2 54 5b be 26 53 9b bc b5 77 63 be
       -0.089737944 -0.21419051 -0.018960547 -0.22213633
0001a0 66 f6 ea 3d ee 94 e6 bd 63 a7 a3 3d 67 ff 3e 3c
       0.11472778 -0.11258875 0.07990911 0.011657572
0001b0 d1 32 04 bd 95 7a 7e be 1b 72 76 3d 90 30 10 be
       -0.032275025 -0.24851449 0.060167413 -0.14081025
0001c0 ab ce cd bd 5a 3d 08 be e3 af 46 3d 9f 6d 07 3a
       -0.100491844 -0.13304654 0.048507582 0.0005166176
0001d0 ec d0 d4 3c 0b 29 fc bd 4d 34 3a bd 52 a2 a7 3b
       0.025978528 -0.12312516 -0.045460034 0.0051157856
0001e0 aa de 3a bc 2c df b9 bd fa 7f f9 bd 4f 88 43 bd
       -0.011405626 -0.0907577 -0.12182613 -0.047737416
0001f0 91 cd 71 3b 70 59 ca bd 77 d3 ff bd e2 77 34 be
       0.0036896209 -0.0988034 -0.124915056 -0.17623857
000200 ea 7d 92 be b5 09 be bd 5c 52 59 be a2 48 89 bd
       -0.2861169 -0.09279195 -0.21222824 -0.06703307
000210 6a 6b 4f be 7f 82 b6 3d 31 c6 28 bd 76 7b 31 bd
       -0.20255819 0.08911609 -0.041204635 -0.043330632
000220 b1 c9 14 be d2 bc cb bd db 54 83 bd 80 86 22 bd
       -0.14530064 -0.09948124 -0.06412669 -0.03967905
000230 6b 1b 1c bc 71 33 b7 3d 35 5e 90 3c 9c 55 fe bd
       -0.009528021 0.089453585 0.017623046 -0.124186724
000240 21 c1 25 3e 6a 39 3a be 0e 4b 2a 3d 0f 69 5c be
       0.16186954 -0.18185964 0.041575484 -0.21524452
000250 a3 58 9d bc 17 2e 9a 3d 20 b1 13 3e f3 91 1a be
       -0.019207304 0.07528322 0.14423037 -0.15094738
000260 4c a8 38 3d 88 e0 e4 3d db 35 9b 3d 06 52 d5 3c
       0.045082375 0.111756384 0.075786315 0.026040088
000270 6e b6 29 3c 93 b5 94 bd a3 e2 2c 3e c9 b4 86 3d
       0.010358436 -0.07261195 0.1688333 0.06577451
000280 3f 3c 08 3e 3f e4 15 be 29 e3 80 3d ff 05 60 be
       0.13304232 -0.1463785 0.06293327 -0.21877287
000290 86 3c 2b be 54 98 bf bd 42 8b d5 bd 91 92 31 be
       -0.16722307 -0.09355226 -0.10426952 -0.17341067
0002a0 3d 6c 83 3d 05 c4 32 bc c9 42 12 bd 2f 18 3a 3d
       0.06417129 -0.0109109925 -0.035708223 0.04543322
0002b0 e6 c7 36 bd 0a f5 0c be 2d fa d5 3d 61 58 2c be
       -0.04462423 -0.1376535 0.10448108 -0.16830589
0002c0 16 46 74 bc df a5 44 be 01 8f 90 3d 03 d9 35 3d
       -0.014909288 -0.192039 0.07058526 0.04439641
0002d0 6c 2a 94 3d 31 82 04 be b6 e6 05 be 1b a2 0b be
       0.07234654 -0.12940289 -0.1307629 -0.13636057
0002e0 e4 17 1c 3c 13 8e 47 be a0 f0 fc bc 04 dc 97 be
       0.00952718 -0.19487791 -0.030876458 -0.29660046
0002f0 5a 93 da 3d 12 7d a7 bd ee 7d 35 be af 36 26 be
       0.10672636 -0.08178152 -0.1772382 -0.16231798
000300 52 d4 7a bc e6 dc 43 3d 06 7f 9e 3c 34 0c d0 3c
       -0.01530941 0.047818087 0.019347679 0.025396444
000310 bd 00 d5 bc 41 f0 e1 3d 38 9b 03 bd 2c f3 41 3e
       -0.026001329 0.11032153 -0.03213045 0.18940419
000320 3d 2c 8c bd 73 67 28 3e c9 c7 e3 3d 92 d4 5d 3e
       -0.06844375 0.16445713 0.1112209 0.2166312
000330 a4 20 5f 3c 1d 90 1c 3e 63 af f9 bc 76 59 76 3e
       0.013618622 0.1528935 -0.030479139 0.24057564
000340 95 02 ba 3d 73 f3 04 be ca 84 28 3e d2 de 90 3b
       0.09082524 -0.12983494 0.16456905 0.0044210935
000350 a0 9f 1a 3e 84 bd b0 bd ad cc 03 3d f4 f6 ea bd
       0.15099955 -0.08629897 0.032177616 -0.11472884
000360 29 63 77 bc c8 bd 25 3d 4b 4d 86 bd 69 9e 6f 3d
       -0.015099325 0.040464193 -0.06557711 0.05850068
000370 19 ed fe 3d 68 1c b9 bd 69 6e 8c 3e 21 d3 00 bd
       0.124475665 -0.09038621 0.27427986 -0.03145135
000380 54 c3 7e bd bf 3a 49 bd 69 06 0f 3e fb c0 91 bd
       -0.062198 -0.04912829 0.13967289 -0.07116886
000390 c4 43 95 ba 54 14 ec 3a 35 23 b7 3d cf 90 c7 bc
       -0.0011387994 0.0018011429 0.08942262 -0.024361042
0003a0 f8 08 d1 3d 70 80 ad bd 33 95 a8 3d 16 65 52 be
       0.10206789 -0.08471763 0.082315825 -0.20546374
0003b0 fc 74 10 be 7e 35 30 be 14 65 a0 3d 28 7d 1f be
       -0.14107126 -0.17207906 0.07831779 -0.15575087
0003c0 f3 bc 82 3d 78 99 1d 3d da 16 5a 3d 65 45 e0 bd
       0.063836955 0.038476437 0.05324445 -0.10950736
0003d0 a6 d1 02 3e 03 b5 27 bd cb 03 53 3e 00 da 0c 3d
       0.12775287 -0.04094411 0.20606916 0.03438759
0003e0 e5 ae 93 3e a3 c7 15 3e 70 9b 75 3d 2a d4 02 3e
       0.2884437 0.14626937 0.05996269 0.12776247
0003f0 af 7b 23 3e 2f c7 81 bd 38 91 05 be b1 c5 0f 3d
       0.1596515 -0.063368194 -0.13043678 0.035100643

sequential/conv2d_1/Conv2D f4 [32, 1, 2, 32]
000000 d1 4d 5b bd 6a fe 0c 3d d8 c5 08 3e 5e 82 c7 bc
       -0.05354101 0.034422316 0.13356721 -0.024354156
000010 5d c6 18 be 87 2d fe bd 45 d7 d7 bd 90 98 8f 3d
       -0.1491942 -0.124110274 -0.10539106 0.07011521
000020 71 d6 3c be 0e 39 78 3d fe 3d 41 3e 5d 20 76 be
       -0.18441178 0.060601287 0.18871304 -0.24035783
000030 a1 4b 9f 3c 25 e4 5a 3d 31 0f c9 bd 57 70 9f 3d
       0.019445242 0.05344023 -0.09817351 0.07785099
000040 7a da 2d be da 5e 0b 3d b9 ce 4e be 81 6a dc 3d
       -0.16977873 0.034026004 -0.20196046 0.107625015
000050 16 a5 33 3e 4e 52 08 3e 0b 16 08 be 7f c6 73 3d
       0.17543444 0.13312647 -0.13289659 0.059515473
000060 61 d3 cc 3c a6 78 b0 bb 48 0e 59 be d0 6c 7f 3d
       0.025003137 -0.005385476 -0.21196854 0.06235963
000070 ff 38 5f 3e 14 01 35 be fc ca 72 be af e5 22 bd
       0.21799086 -0.17676193 -0.23710245 -0.039769825
000080 cb 2c a5 3e c0 68 a7 3e c7 5b d7 bd 6c 6f 83 3e
       0.32260737 0.32697105 -0.10515552 0.25670946
000090 8c 97 19 3e e8 4d 62 3d 0f 12 b0 3d ad b9 39 3d
       0.14999217 0.05525008 0.085971944 0.04534309
0000a0 10 7b 58 be a2 43 6a bd 85 2a 93 bd 92 31 1b 3e
       -0.21140695 -0.057193406 -0.07185844 0.15155628
0000b0 73 de 31 3d 02 44 e9 3d 4e 79 9e be c6 be d4 3d
       0.043425035 0.113899246 -0.30951923 0.1038795
0000c0 10 2b f0 bc 90 69 d4 3c 99 d6 09 3e 19 e8 60 be
       -0.029317409 0.025929242 0.13460769 -0.21963538
0000d0 03 bd 8a 3e 45 d8 5e 3d 0e ff ae 3d d0 d2 24 3e
       0.2709733 0.05440547 0.085447416 0.16096044
0000e0 df e9 ab 3c d9 cc 38 be 48 87 b3 3d 1b a5 40 3b
       0.020985542 -0.18046893 0.08766037 0.0029395286
0000f0 b8 eb fe 3d e2 70 7c be 4d ed a7 bd 21 72 0f be
       0.124473035 -0.24652436 -0.081995584 -0.1400838
000100 b5 59 89 3d 2e 71 86 be 00 52 85 bc 31 f9 3d be
       0.067065634 -0.26258224 -0.016274452 -0.1855209
000110 95 70 db 3c 8a 06 c6 3d c3 67 06 be 87 a0 89 3d
       0.026787082 0.09669216 -0.1312552 0.06720071
000120 c2 80 71 bd 39 c0 97 bd f8 73 40 bd 19 2d 7d be
       -0.058960684 -0.074097104 -0.046985596 -0.24724235
000130 66 03 83 bc d0 b8 4a be 60 17 42 bd 50 94 0e be
       -0.015992831 -0.19797063 -0.047385573 -0.13923764
000140 1f c3 06 be 69 3e ec bd b3 b6 84 be d5 89 54 be
       -0.1316037 -0.11535341 -0.25920638 -0.20755704
000150 53 6e 04 3e ff e0 3f bb ed ff 97 3e 81 07 ec 3d
       0.1293271 -0.0029278395 0.29687443 0.11524869
000160 11 b6 a9 3d 65 0e 59 bd b0 4c 09 3d 25 2d 4a 3e
       0.082866795 -0.052992243 0.0335204 0.19743784
000170 b9 bd e0 3d 5f 6d 95 bd 3c 5c bb 3e df d2 01 3e
       0.10973687 -0.072962515 0.36593807 0.12678097
000180 e5 2c 10 bf c0 7a 83 bd 03 9b c6 bd 64 e1 c4 bd
       -0.56318504 -0.06419897 -0.09697535 -0.09613302
000190 54 2e 90 bd 64 99 92 bd 97 ca 2a 3d 2c 45 34 be
       -0.070400864 -0.07158163 0.04169711 -0.17604512
0001a0 89 fd 97 bd 4d 7c 3d bd 1d f6 4c be ac 53 3f be
       -0.07421405 -0.04626112 -0.2001576 -0.18684262
0001b0 ba 4c 60 be 00 78 21 3e ac 10 59 3d c7 27 a1 3e
       -0.21904269 0.15768433 0.052994415 0.3147566
0001c0 6c 88 b8 bd c7 40 a6 bc e3 1e 68 3e 28 54 3b bd
       -0.090103954 -0.02029456 0.22668032 -0.045734555
0001d0 d2 88 8d 3e ef 11 b3 bc e5 d9 3f 3e 53 18 00 3d
       0.27643448 -0.021859137 0.18735464 0.031273197
0001e0 9f db 30 3e c9 21 41 be b1 45 e4 bc f1 ad 7f bd
       0.17271279 -0.18860544 -0.027865263 -0.062421743
0001f0 53 be 91 3e 55 10 4f 3d 31 34 da 3d 35 f4 13 3e
       0.28465518 0.050552685 0.10654486 0.14448626
000200 97 ee 23 3e 94 23 38 be 5a 52 81 bc 15 1e 1a be
       0.16008984 -0.17982322 -0.015786339 -0.15050538
000210 c8 2e 20 bc d5 57 50 bd b6 99 15 be 97 c5 0e 3e
       -0.0097767785 -0.050865013 -0.14609417 0.13942562
000220 37 d9 62 3d 9c 88 05 be 2e 88 0c bd 2c d4 d8 3d
       0.055382933 -0.13040394 -0.03430956 0.105873436
000230 e4 62 43 be fa 48 c2 3c b8 e7 32 bd 9f 50 04 be
       -0.19080693 0.023716439 -0.043678015 -0.1292138
000240 72 19 8c 3d fa d8 b1 bd 65 14 20 3e b6 a2 3f 3d
       0.06840791 -0.08683963 0.1563278 0.046786033
000250 6b e2 0e be de fb 6c 3e c6 08 20 bc 80 31 1a bd
       -0.13953559 0.23142955 -0.009767717 -0.037644863
000260 c3 4c d9 bd b2 f8 a3 be cd 81 a8 bd 53 1c 02 be
       -0.10610344 -0.32025677 -0.082278825 -0.12706117
000270 8f 34 3f be 39 a5 e5 bd 41 50 29 be 74 6e 34 be
       -0.18672393 -0.11213154 -0.1653452 -0.1762026
000280 8b a3 0f 3e 73 56 b6 3d 95 8b 50 bd 28 72 9c 3a
       0.1402723 0.08903208 -0.050914366 0.0011935877
000290 f1 8f 9a be 25 ed be bd 72 d7 8f 3c 80 b4 6f 3d
       -0.30187944 -0.093225755 0.017558787 0.058521748
0002a0 cc e3 24 bd 5a de 0a be e1 30 3c 3e 7a 29 3b 3e
       -0.040256307 -0.13561383 0.18378021 0.18277541
0002b0 23 82 a5 bd f0 87 1d bc e0 0a 5f 3d 38 cf 89 be
       -0.08081462 -0.00961493 0.05445373 -0.26915908
0002c0 6f 94 35 bd 36 b5 73 3e 91 bf 34 bd 7d 77 7c 3e
       -0.04433101 0.23799595 -0.044128004 0.24654956
0002d0 88 77 ce bd 13 68 ff bd d2 27 19 be 3a 15 80 be
       -0.100813925 -0.124710225 -0.14956596 -0.25016195
0002e0 3f df b5 bd 82 de cf 3b 97 b6 0b be e2 05 57 be
       -0.088804714 0.0063436637 -0.13643871 -0.20998338
0002f0 40 b4 4c 3e 98 92 10 3e b7 ed 32 be e7 ac 00 be
       0.19990635 0.14118421 -0.17473494 -0.12565957
000300 4f c0 18 be e9 09 40 3e 79 6a a2 bc 2e 5d 2d be
       -0.1491711 0.1875378 -0.01982616 -0.16930076
000310 b4 01 3a 3e bf 51 69 3e 0f 2d 4b 3e 21 ff 3f bd
       0.18164712 0.2278509 0.19841407 -0.04687417
000320 da 38 17 3e 65 8f c5 3e f1 4d 06 3e c2 45 5b bd
       0.14767781 0.38585964 0.1311567 -0.053533323
000330 18 6a 26 3d 0b 05 22 3e 42 5c fe 3c f1 25 9e 3e
       0.040628523 0.15822236 0.031049851 0.30888322
000340 2e ad 84 3e d9 6e 69 bd a9 42 6f 3e 7c 02 e2 bd
       0.25913376 -0.05699048 0.23365273 -0.1103563
000350 c5 d4 0e be 7e d1 20 3e d1 7d 76 be f3 14 94 3e
       -0.13948353 0.15704915 -0.24071433 0.28922233
000360 27 8f b5 3e db 8e fd bc 77 8a 41 bd ea fe d5 bd
       0.3546078 -0.030951908 -0.04725119 -0.104490116
000370 a2 f7 b8 3c 8a 37 9f bd ae 24 36 3d 82 1a ce bd
       0.022579018 -0.07774265 0.044468574 -0.1006365
000380 e0 f2 ca bd a6 68 fd bd 73 18 d7 3c 72 cb 9c be
       -0.09909606 -0.12373476 0.026256775 -0.30623966
000390 25 da 8a 3d 70 b4 f9 3c 05 8d 26 3e d9 9c b1 bc
       0.06779889 0.030481547 0.16264732 -0.021681236
0003a0 39 54 a7 3d 2e 5d 92 3c fc 92 d9 3d 24 7f d8 bd
       0.08170361 0.017866697 0.10623738 -0.10571125
0003b0 d6 f8 51 be 38 9b f2 3d 92 3c 68 3e 3c df d4 bd
       -0.2050508 0.11846012 0.22679356 -0.10394141
0003c0 25 da c7 bd 01 db 85 be 17 92 59 bd 50 a1 60 3d
       -0.09758405 -0.2614365 -0.053117838 0.05484134
0003d0 92 01 ab bd 44 33 5a bd 81 c9 0f 3e bd c1 29 be
       -0.08349909 -0.053271547 0.14041711 -0.16577812
0003e0 f4 00 00 be f6 ee 14 3d b6 03 74 be c0 d8 86 3d
       -0.12500364 0.036360703 -0.2382954 0.065843105
0003f0 9b 15 68 3d 67 41 e8 3d d0 8f ad 3d 9b 81 e2 3d
       0.05666123 0.113405995 0.08474696 0.110598765

sequential/dense/BiasAdd/ReadVariableOp f4 [32]
000000 00 9a a9 be 75 8d ed bd 0d b0 07 bf ec 59 55 be
       -0.33125305 -0.115992464 -0.5300301 -0.20835084
000010 3c 6d 82 be 21 43 89 be 98 cb 9c bd 2f de 9f be
       -0.25473964 -0.26809028 -0.0765602 -0.312242
000020 07 52 82 be 45 5b 81 bd 72 0f 99 bd 1b a7 05 bf
       -0.25453207 -0.063162364 -0.07473649 -0.5220811
000030 01 aa af be 80 e9 3b be 31 ed a0 be 13 4b 4d be
       -0.3430939 -0.18350792 -0.31430963 -0.2004817
000040 bb f9 15 be ed 92 bc be ea 5f b1 bc 95 32 b0 be
       -0.14646046 -0.36830845 -0.02165218 -0.3441359
000050 84 04 33 be ab f8 85 be e6 82 01 bf 10 4a db be
       -0.17482191 -0.2616628 -0.5059036 -0.42829943
000060 19 77 c0 be 10 a3 9d bd cc c6 a2 be 16 2a 93 bd
       -0.37590864 -0.07697117 -0.31792295 -0.07185762
000070 3f 84 b2 be d9 7d 98 be 7c 86 5f be b6 26 2b be
       -0.3486652 -0.29783514 -0.21828645 -0.16713986

sequential/dense_2/BiasAdd/ReadVariableOp f4 [5]
000000 b0 5d 68 be 6a 26 bd 3d ab bd 8c 3b a5 cc 59 3e
       -0.22691989 0.092358425 0.004295071 0.21269472
000010 8d 87 f6 3b
       0.007523483

sequential/dense/MatMul f4 [32, 64]
000000 f6 d0 88 be de d0 ad 3e 04 68 62 3e 2a 4b 2c be
       -0.26721925 0.33948416 0.22109991 -0.16825548
000010 93 99 65 be 95 16 4e bc 18 37 56 bd b9 59 39 be
       -0.22421865 -0.012578626 -0.052298635 -0.18100633
000020 d4 6b 18 3d b9 39 94 bd 1d 25 ca 3e fd e7 f8 bc
       0.037212208 -0.07237572 0.3948144 -0.030384058
000030 c8 c3 93 3e b9 94 e0 3c 6b 60 d4 3d 54 e7 2e be
       0.28860307 0.027414666 0.10369953 -0.17080432
000040 2f e7 d4 bd 42 fc 18 3e 91 75 6c 3e 0c 5b 47 3e
       -0.10395657 0.14939979 0.23091723 0.19468325
000050 06 d5 9d bd 27 14 0e be 96 b4 26 bd 10 e1 a3 3c
       -0.077066466 -0.13874875 -0.040699564 0.02000478
000060 19 32 0e 3d b7 3e 3b be c0 33 ef be f8 62 bb 3d
       0.034715746 -0.18285643 -0.4671917 0.09149736
000070 3b 0e 83 3c f2 88 09 3e 5b 84 51 be 20 5a 06 3e
       0.015997997 0.13431147 -0.20460646 0.13120317
000080 8b 2e d3 bd 55 87 8c 3e 43 5c 5b be 6c b3 42 3d
       -0.10311612 0.27447 -0.21421914 0.04753439
000090 94 c9 b6 bc ce 18 9a 3c f5 04 42 bd 8c 3a 26 be
       -0.022312917 0.018810656 -0.04736801 -0.16233271
0000a0 14 c2 1d 3d 45 de 73 be c7 00 97 3e 81 49 f1 3d
       0.038515165 -0.23815258 0.2949278 0.11781598
0000b0 e6 27 8b 3e b5 da 2f 3e dd 6b 8b 3c a6 39 36 3e
       0.27178878 0.17173274 0.017019207 0.17795429
0000c0 f5 86 00 be 09 94 39 3d ba 00 3d 3e b6 b8 24 3e
       -0.12551482 0.045307193 0.18457308 0.16086087
0000d0 6c 92 94 be bc 8a 25 bd a5 58 1d be 8c 22 4d bd
       -0.2901796 -0.04041551 -0.15365846 -0.050081775
0000e0 b4 ee 76 3e 00 12 e0 bd c4 89 f5 bd aa 29 9b bd
       0.24114496 -0.10940933 -0.11989167 -0.07576306
0000f0 4c b7 36 be bc 0a c8 bc 68 b4 1d be 48 6a a3 3d
       -0.1784336 -0.024419181 -0.15400851 0.07979256
000100 92 12 52 3e 37 ab a6 3d 1c 07 29 3e e5 5f f2 bc
       0.20514897 0.081381254 0.16506618 -0.029586742
000110 07 a6 5b be cf 8f 27 3e 27 3e d2 bc a6 6a 20 3d
       -0.21450053 0.16363452 -0.025664402 0.039164208
000120 95 77 10 3e ac d1 01 ba 74 14 58 be be d7 6c 3e
       0.14108117 -0.0004952203 -0.21101552 0.23129174
000130 30 5f 5e be b8 bf 51 3d 84 1b 2f be bf a5 f4 bb
       -0.21715999 0.051208228 -0.1710034 -0.0074660475
000140 c1 f3 a1 be fc 8d 00 bf 5e 96 4d 3b 0d 4a 76 be
       -0.31631282 -0.5021665 0.0031370143 -0.24051686
000150 59 8d 09 3e 2f fb 09 bd 60 7b 08 3d cf f5 0d bf
       0.13432826 -0.033686813 0.033320785 -0.554532
000160 39 92 fd 3d ac 26 39 3d d9 bf 53 3d d2 03 14 be
       0.123814054 0.045202896 0.051696632 -0.14454582
000170 cf ee 27 be fb 7e 98 3d ac 89 a6 bd 6d 21 e8 bd
       -0.16399692 0.074460946 -0.081317276 -0.113345005
000180 01 d0 c6 3d d1 4e b0 3d 74 ea 77 bd 92 5d 32 3e
       0.09707642 0.08608783 -0.060526326 0.17418507
000190 32 8e de be 91 b8 26 bd 03 4a 25 bc c8 07 92 3d
       -0.4346786 -0.04070336 -0.010088447 0.071303904
0001a0 11 b1 54 3e 1a be 9a bd 72 ee cf be 4c db 9c 3e
       0.2077067 -0.0755579 -0.40611607 0.3063606
0001b0 1c 4b 95 be 9e b9 63 3e 6d c8 1c be 86 6a 1a bc
       -0.29158866 0.22238776 -0.15310831 -0.009424811
0001c0 7c 8f 9c 3c 1e 22 92 be b6 8e f7 bd 79 c8 91 be
       0.019111387 -0.28541654 -0.12087767 -0.2847326
0001d0 22 8a a6 be a0 2a 82 3d 22 de 53 bd 7c 0c 17 bf
       -0.32527262 0.06355786 -0.051725514 -0.59003425
0001e0 d4 7c 51 be 93 ad 4d be 51 77 3a 3e e9 7b c9 bd
       -0.20457774 -0.20085745 0.18209578 -0.09838087
0001f0 3e a7 cb bc 3a f4 76 3d a5 50 4e 3d f7 23 7d bd
       -0.02486002 0.060291506 0.050369877 -0.061801877
000200 56 82 a1 be 57 4c 23 3e de 54 cd bc 87 7d 18 bd
       -0.3154475 0.1594709 -0.025064882 -0.037229087
000210 08 fa 8d be c4 20 9c 3e 50 c4 85 3e 98 4c 6b 3e
       -0.2772982 0.30493748 0.26126337 0.22978437
000220 6b 96 cd 3d 81 41 ee bd 75 0e c0 bd 12 5c 82 bd
       0.100384556 -0.11633588 -0.093777575 -0.06365217
000230 36 de 7b be 8a 30 bf 3d 1a bc 30 3e dc 4b 57 be
       -0.24596485 0.0933543 0.17259255 -0.21025032
000240 4b a6 cf bc 5b da 2b be f3 c5 00 3e 1b 23 f8 3d
       -0.02534785 -0.16782515 0.12575512 0.12116071
000250 ad 99 a5 3e 3a f9 04 be a5 90 4f 3e 09 94 84 be
       0.32343808 -0.12985697 0.20270021 -0.25894192
000260 12 91 0b 3e cd 7a a8 bd af 51 fd 3d bd a4 2d 3e
       0.13629559 -0.082265474 0.123690955 0.16957374
000270 d1 29 23 be f5 89 4d 3e fb 57 9b 3d 40 db db 3d
       -0.1593392 0.20072158 0.0758514 0.10735178
000280 96 26 f4 bd 6a 90 4f 3c 51 77 6a 3d d8 9b 8c 3e
       -0.11921422 0.012668708 0.057242695 0.2746265
000290 34 65 76 3e ff 41 37 bc 75 a0 c3 bd 2d db 34 be
       0.24062043 -0.011185168 -0.09552089 -0.17661734
0002a0 e3 b6 39 bd 74 6c fe bd c2 fc 5b 3d c6 5a a1 3c
       -0.04534043 -0.124230295 0.053707846 0.019696604
0002b0 40 bf 92 be c1 fa 66 be 35 ad 8e bd a4 f5 89 3d
       -0.28661537 -0.22556593 -0.0696663 0.06736305
0002c0 09 e4 09 3e 5e 91 60 be 0d f6 04 be 56 2d e8 bd
       0.13465895 -0.21930453 -0.12984486 -0.11336772
0002d0 4b 7f 3e 3e 5b e1 81 3e a9 3a c3 3e 6d 0b 04 be
       0.18603246 0.25367245 0.38130692 -0.12894984
0002e0 13 99 b4 3e d3 bd f3 bb af b2 c4 bd a3 0e 1c be
       0.35273036 -0.0074384003 -0.09604394 -0.15239958
0002f0 fb 0c 29 bd da 0d 83 be e8 52 5c bd e0 a9 6d 3e
       -0.041272145 -0.25596505 -0.053790003 0.23209333
000300 f3 65 2c 3e 77 53 4f 3d 69 d7 c9 bd 8f 2f 51 be
       0.16835766 0.050616708 -0.09855539 -0.20428298
000310 0f ea 21 bc 0b 15 15 3e a6 6d a5 bc 0e 90 d9 be
       -0.009882464 0.14558809 -0.020193886 -0.42492718
000320 06 3c e0 bd 81 c5 2e be 4e 67 09 be d0 30 6c be
       -0.109489486 -0.1706753 -0.13418314 -0.23065495
000330 40 6c 79 3c 84 93 00 be 3a 08 00 3d a7 e9 80 3d
       0.015223563 -0.12556273 0.031257845 0.06294566
000340 7e 0a 5a 3e 12 7d c8 bb 2b 08 07 3e 99 fc 5e bc
       0.21293065 -0.006118425 0.1318671 -0.013610029
000350 dd 3b 2b be 43 65 28 3e d2 47 73 be 6b 0f 9e be
       -0.16722055 0.16444878 -0.23757866 -0.30871138
000360 3a 84 c5 3d 63 75 42 be e7 27 4d be dd 13 1e be
       0.09644361 -0.18990092 -0.20034753 -0.15437265
000370 1c 06 4a be b4 09 e5 bd 92 1b bb 3d b2 b5 90 3e
       -0.19728893 -0.11183491 0.09136118 0.28263623
000380 11 41 bb be 0f 59 0f 3d f6 72 b3 bd eb d5 55 3d
       -0.3657308 0.034997042 -0.087621614 0.05220596
000390 cf 06 05 be 70 7c 6c be 73 6a 77 3d 75 56 08 be
       -0.12990879 -0.23094344 0.060404252 -0.1331423
0003a0 f1 50 49 be 89 bd b2 be 54 c7 ec 3d f1 ee 8f bd
       -0.19659783 -0.3491023 0.11561456 -0.07027996
0003b0 c6 db 8f 3e 04 b5 c1 3c 1d aa d1 be c9 5c 69 3d
       0.2809736 0.023645885 -0.409501 0.056973252
0003c0 11 8a 44 3e 54 0a 6f 3e 24 5f a9 3d ce 7a 56 be
       0.19193293 0.23343784 0.082701 -0.20945284
0003d0 a8 f0 2d be 8e 14 6d be 26 25 65 bd 52 b6 fe bc
       -0.16986334 -0.23152372 -0.05594363 -0.031092796
0003e0 1d bf dd 3c d4 50 d8 bd fe a4 26 bd 3b d2 a2 bd
       0.027068669 -0.10562292 -0.040684693 -0.079502545
0003f0 2a 30 63 be 35 69 06 be 71 bc 06 be 3f da dc 3d
       -0.22186342 -0.13126071 -0.13157822 0.10783815

sequential/dense_2/MatMul f4 [5, 16]
000000 af 11 3f bf a2 e6 d4 be 39 27 83 3d 5c 9f 99 be
       -0.7463636 -0.4158221 0.064039655 -0.30004394
000010 8e 93 ee 3e fd 4d a1 3d bb 24 e4 3e 7a cd 2f 3a
       0.4659695 0.07876203 0.44559273 0.00067063386
000020 bb 78 43 3e b7 c1 5e be e2 52 64 3e 69 1d cf 3e
       0.19089024 -0.21753584 0.22297242 0.40452126
000030 38 74 b7 3e 46 93 ac be b3 a3 53 3e 33 65 28 bf
       0.35830855 -0.3370611 0.20667915 -0.6577942
000040 12 67 39 bf b4 d8 08 bf 31 4c 2b 3e 67 02 f7 be
       -0.724229 -0.5345566 0.16728283 -0.4824402
000050 39 fc ff 3e 86 f2 5a be 1b 5c e8 3e 4a 73 5a 3d
       0.49997118 -0.21381578 0.4538277 0.053332604
000060 33 6e 1c bf 0d ff fe bd 93 01 08 3e f8 04 ea 3e
       -0.6110565 -0.12450991 0.1328185 0.45706916
000070 7a 5f 0f 3e b2 2b 17 bf 59 31 d9 be 42 10 0d bf
       0.14001265 -0.5905105 -0.42420462 -0.5510293
000080 eb 05 5b be dc 9d a6 bd d9 bb 27 bf 50 55 d5 be
       -0.21388976 -0.08135578 -0.6552101 -0.4166665
000090 a7 cb d6 bd d5 55 ce 3e 8b 6f 84 bd f2 57 0f bf
       -0.10488062 0.4029986 -0.06466588 -0.5599357
0000a0 b8 7c 4c bf 78 78 f1 3e 93 a4 08 3f eb 04 a6 be
       -0.79877806 0.47162223 0.5337612 -0.32425627
0000b0 60 6b 17 bf e4 5c 9c 3e 20 43 46 be 11 f9 2c 3e
       -0.59148216 0.3053962 -0.19361544 0.16891886
0000c0 00 e9 88 3e 5d 96 b5 3e 05 40 2b 3e 8b 19 e6 3e
       0.26740265 0.3546628 0.1672364 0.44941363
0000d0 b9 7d 39 bf 2e a0 38 bf a3 9b 30 be d3 f4 38 bf
       -0.7245746 -0.72119415 -0.1724687 -0.7224857
0000e0 e4 6c e7 3e 51 01 8e bd 90 70 39 bf 74 5e 32 bf
       0.45200264 -0.06933845 -0.7243738 -0.69675374
0000f0 c0 a6 e6 be 69 47 df be c7 38 c1 be 4c 64 07 bf
       -0.45049095 -0.4360917 -0.3773863 -0.52887416
000100 f8 32 bc 3d 63 74 95 3e 72 63 99 be e0 ff b5 3e
       0.09189409 0.2919036 -0.29958683 0.3554678
000110 5c 21 af 3e 6d d1 38 3d 38 ef 5f 3d 43 c6 fb bd
       0.3420514 0.0451216 0.054671496 -0.12293675
000120 5d 56 18 3e 26 a0 ae 3e e1 14 1e be 33 c9 07 3e
       0.14876695 0.3410656 -0.15437652 0.13260345
000130 f3 af 5b 3e de fc 4f 3e be 8c 34 3e 04 41 d4 bd
       0.21453838 0.20311305 0.17631814 -0.10363963
